…
   "outputs": [],
   "source": [
    "model.fc = nn.Linear(512, 7)"
   ]
  },
  {
   "cell_type": "markdown",
   "id": "048fe114-92ee-4c41-aede-1e016711ffcd",
   "metadata": {},
   "source": [
    "Print out the model in order to show whether you get the correct answer.<br> <b>(Your peer reviewer is going to mark based on what you print here.)</b>\n"
   ]
  },
  {
   "cell_type": "code",
   "execution_count": 38,
   "id": "1462f12b-da03-4175-ad74-043e46166410",
   "metadata": {},
   "outputs": [
    {
     "name": "stdout",
     "output_type": "stream",
     "text": [
      "ResNet(\n",
      "  (conv1): Conv2d(3, 64, kernel_size=(7, 7), stride=(2, 2), padding=(3, 3), bias=False)\n",
      "  (bn1): BatchNorm2d(64, eps=1e-05, momentum=0.1, affine=True, track_running_stats=True)\n",
      "  (relu): ReLU(inplace=True)\n",
      "  (maxpool): MaxPool2d(kernel_size=3, stride=2, padding=1, dilation=1, ceil_mode=False)\n",
      "  (layer1): Sequential(\n",
      "    (0): BasicBlock(\n",
      "      (conv1): Conv2d(64, 64, kernel_size=(3, 3), stride=(1, 1), padding=(1, 1), bias=False)\n",
      "      (bn1): BatchNorm2d(64, eps=1e-05, momentum=0.1, affine=True, track_running_stats=True)\n",
      "      (relu): ReLU(inplace=True)\n",
      "      (conv2): Conv2d(64, 64, kernel_size=(3, 3), stride=(1, 1), padding=(1, 1), bias=False)\n",
      "      (bn2): BatchNorm2d(64, eps=1e-05, momentum=0.1, affine=True, track_running_stats=True)\n",
      "    )\n",
      "    (1): BasicBlock(\n",
      "      (conv1): Conv2d(64, 64, kernel_size=(3, 3), stride=(1, 1), padding=(1, 1), bias=False)\n",
      "      (bn1): BatchNorm2d(64, eps=1e-05, momentum=0.1, affine=True, track_running_stats=True)\n",
      "      (relu): ReLU(inplace=True)\n",
      "      (conv2): Conv2d(64, 64, kernel_size=(3, 3), stride=(1, 1), padding=(1, 1), bias=False)\n",
      "      (bn2): BatchNorm2d(64, eps=1e-05, momentum=0.1, affine=True, track_running_stats=True)\n",
      "    )\n",
      "  )\n",
      "  (layer2): Sequential(\n",
      "    (0): BasicBlock(\n",
      "      (conv1): Conv2d(64, 128, kernel_size=(3, 3), stride=(2, 2), padding=(1, 1), bias=False)\n",
      "      (bn1): BatchNorm2d(128, eps=1e-05, momentum=0.1, affine=True, track_running_stats=True)\n",
      "      (relu): ReLU(inplace=True)\n",
      "      (conv2): Conv2d(128, 128, kernel_size=(3, 3), stride=(1, 1), padding=(1, 1), bias=False)\n",
      "      (bn2): BatchNorm2d(128, eps=1e-05, momentum=0.1, affine=True, track_running_stats=True)\n",
      "      (downsample): Sequential(\n",
      "        (0): Conv2d(64, 128, kernel_size=(1, 1), stride=(2, 2), bias=False)\n",
      "        (1): BatchNorm2d(128, eps=1e-05, momentum=0.1, affine=True, track_running_stats=True)\n",
      "      )\n",
      "    )\n",
      "    (1): BasicBlock(\n",
      "      (conv1): Conv2d(128, 128, kernel_size=(3, 3), stride=(1, 1), padding=(1, 1), bias=False)\n",
      "      (bn1): BatchNorm2d(128, eps=1e-05, momentum=0.1, affine=True, track_running_stats=True)\n",
      "      (relu): ReLU(inplace=True)\n",
      "      (conv2): Conv2d(128, 128, kernel_size=(3, 3), stride=(1, 1), padding=(1, 1), bias=False)\n",
      "      (bn2): BatchNorm2d(128, eps=1e-05, momentum=0.1, affine=True, track_running_stats=True)\n",
      "    )\n",
      "  )\n",
      "  (layer3): Sequential(\n",
      "    (0): BasicBlock(\n",
      "      (conv1): Conv2d(128, 256, kernel_size=(3, 3), stride=(2, 2), padding=(1, 1), bias=False)\n",
      "      (bn1): BatchNorm2d(256, eps=1e-05, momentum=0.1, affine=True, track_running_stats=True)\n",
      "      (relu): ReLU(inplace=True)\n",
      "      (conv2): Conv2d(256, 256, kernel_size=(3, 3), stride=(1, 1), padding=(1, 1), bias=False)\n",
      "      (bn2): BatchNorm2d(256, eps=1e-05, momentum=0.1, affine=True, track_running_stats=True)\n",
      "      (downsample): Sequential(\n",
      "        (0): Conv2d(128, 256, kernel_size=(1, 1), stride=(2, 2), bias=False)\n",
      "        (1): BatchNorm2d(256, eps=1e-05, momentum=0.1, affine=True, track_running_stats=True)\n",
      "      )\n",
      "    )\n",
      "    (1): BasicBlock(\n",
      "      (conv1): Conv2d(256, 256, kernel_size=(3, 3), stride=(1, 1), padding=(1, 1), bias=False)\n",
      "      (bn1): BatchNorm2d(256, eps=1e-05, momentum=0.1, affine=True, track_running_stats=True)\n",
      "      (relu): ReLU(inplace=True)\n",
      "      (conv2): Conv2d(256, 256, kernel_size=(3, 3), stride=(1, 1), padding=(1, 1), bias=False)\n",
      "      (bn2): BatchNorm2d(256, eps=1e-05, momentum=0.1, affine=True, track_running_stats=True)\n",
      "    )\n",
      "  )\n",
      "  (layer4): Sequential(\n",
      "    (0): BasicBlock(\n",
      "      (conv1): Conv2d(256, 512, kernel_size=(3, 3), stride=(2, 2), padding=(1, 1), bias=False)\n",
      "      (bn1): BatchNorm2d(512, eps=1e-05, momentum=0.1, affine=True, track_running_stats=True)\n",
      "      (relu): ReLU(inplace=True)\n",
      "      (conv2): Conv2d(512, 512, kernel_size=(3, 3), stride=(1, 1), padding=(1, 1), bias=False)\n",
      "      (bn2): BatchNorm2d(512, eps=1e-05, momentum=0.1, affine=True, track_running_stats=True)\n",
      "      (downsample): Sequential(\n",
      "        (0): Conv2d(256, 512, kernel_size=(1, 1), stride=(2, 2), bias=False)\n",
      "        (1): BatchNorm2d(512, eps=1e-05, momentum=0.1, affine=True, track_running_stats=True)\n",
      "      )\n",
      "    )\n",
      "    (1): BasicBlock(\n",
      "      (conv1): Conv2d(512, 512, kernel_size=(3, 3), stride=(1, 1), padding=(1, 1), bias=False)\n",
      "      (bn1): BatchNorm2d(512, eps=1e-05, momentum=0.1, affine=True, track_running_stats=True)\n",
      "      (relu): ReLU(inplace=True)\n",
      "      (conv2): Conv2d(512, 512, kernel_size=(3, 3), stride=(1, 1), padding=(1, 1), bias=False)\n",
      "      (bn2): BatchNorm2d(512, eps=1e-05, momentum=0.1, affine=True, track_running_stats=True)\n",
      "    )\n",
      "  )\n",
      "  (avgpool): AdaptiveAvgPool2d(output_size=(1, 1))\n",
      "  (fc): Linear(in_features=512, out_features=7, bias=True)\n",
      ")\n"
     ]
    }
   ],
   "source": [
    "print(model)"
   ]
  },
  {
   "cell_type": "markdown",
   "id": "cb183bcf-8cfa-4e48-93e8-af78f42e57b0",
   "metadata": {},
   "source": [
    "<h2 id=\"Question_2\">Question 2: Train the Model</h2>\n"
   ]
  },
  {
   "cell_type": "markdown",
   "id": "91768582-592a-4360-b47c-1c7db7008ff8",
   "metadata": {},
…
